main_code/model/exported/EEG_Classifier.pth (torch_old, 139216 bytes, 19 tensors)

conv2d_1.0.weight f4 [32, 1, 1, 4]
000000 60 bf 32 3d 0d 2b 0d bf 0a cf 95 be 79 85 f4 bd
       0.04363954 -0.55143815 -0.2925952 -0.119395204
000010 7f d9 28 be 38 39 82 bd a2 1b 3b be da 39 e3 3e
       -0.16489218 -0.0635857 -0.1827226 0.44380075
000020 c6 2b 32 be e3 23 02 bf 9a ed 9a 3e 2f 6c 86 be
       -0.1739951 -0.5083601 0.302594 -0.26254413
000030 bc a8 e9 be 28 a4 62 3e 23 d6 c9 bd b2 68 b5 3e
       -0.45636547 0.22132933 -0.098552965 0.3543144
000040 16 e3 55 b9 66 1f bf b9 a6 5a 20 ba 57 08 29 ba
       -0.00020397859 -0.00036453753 -0.00061170233 -0.0006448081
000050 a3 e5 a7 3e a9 b3 ac 3e 8e 04 7b bd f9 01 e3 3e
       0.32792386 0.3373082 -0.06128364 0.44337443
000060 45 a3 af be 5d 2d bf be df 51 34 be 7c 23 1e 3e
       -0.34304252 -0.37339297 -0.17609356 0.15443224
000070 7c e7 3e 3e cb 23 b9 3e ec dd 8b be 6d 0f e1 3e
       0.18642992 0.3616012 -0.2731775 0.4395708
000080 9d 26 d4 be 71 c0 7f be 11 c7 90 3d 14 5f 9d be
       -0.4143571 -0.24975754 0.07069219 -0.307366
000090 d6 7c 8d be 1a 01 be be ee 9f ee 3e 97 87 9d be
       -0.27634305 -0.37110215 0.46606392 -0.3076751
0000a0 b2 85 97 3e 52 8e 95 bd fc 0e 30 3e e3 28 9d 3e
       0.2959419 -0.07302536 0.17193216 0.30695257
0000b0 68 53 c6 be 4e b5 d2 3e 69 9f c1 3e fb 71 98 3e
       -0.3873551 0.4115395 0.37816933 0.2977446
0000c0 22 ed e4 3e dc d6 34 3e 67 ac c5 3d a8 6f a7 be
       0.44712168 0.17660087 0.09652024 -0.32702374
0000d0 03 9c e7 3d 93 a6 ed 3c ed 37 bc 3e 19 14 a4 be
       0.11309054 0.029010093 0.36761418 -0.32046583
0000e0 51 e5 8c be c7 6c c1 3e 81 3f 8d be 46 c5 ba be
       -0.27518705 0.37778303 -0.27587512 -0.36478633
0000f0 08 36 81 3e a3 ed af be d4 91 98 3e 7c 8a b5 be
       0.25236535 -0.3436099 0.29798758 -0.35457218
000100 48 3a b8 38 5f 2e 0f 39 6d fb 69 38 ce 66 51 b7
       8.7846594e-05 0.00013654817 5.5785687e-05 -1.2481307e-05
000110 60 1c ba be b7 d9 bf be 9b f4 5b bd 01 d0 30 3d
       -0.36349773 -0.3747079 -0.05370007 0.043167118
000120 d6 fd 3e bd 36 63 25 3e e9 5d 89 3e 1b 89 cc 3e
       -0.046628796 0.16151127 0.2682946 0.39948353
000130 52 bd a9 be 1b f8 72 3c 61 06 74 bd af 51 be 3e
       -0.33152252 0.014829661 -0.059576396 0.37171695
000140 48 ca af bd eb cb 76 3e cd 04 ee 3e 80 d2 05 3e
       -0.08583504 0.24101226 0.46488038 0.1306858
000150 f9 2c a7 3c 92 01 b5 3b f7 e1 a5 bc e4 6a ba bb
       0.020407187 0.005523869 -0.02024935 -0.005689012
000160 66 8e dd 3e 4d 08 91 be 18 c1 4e 3e 63 ee b6 bd
       0.43272704 -0.28326645 0.20190847 -0.089321874
000170 1c 03 ef bb 6e 16 ae bd 18 50 a8 be 5c 09 37 3e
       -0.007294072 -0.08500372 -0.32873607 0.17874664
000180 a6 cc d7 3e 5c 86 10 3f 14 e1 b3 bd 61 f7 0c 3f
       0.42148322 0.56455016 -0.087831646 0.5506497
000190 53 62 da be 29 06 7a 3e a5 67 43 3e 4d c4 d8 be
       -0.4265314 0.24416412 0.19082506 -0.42337266
0001a0 b4 93 07 3e bf d0 3d bd 7b db 93 3e 13 b3 b9 3c
       0.13239938 -0.046341654 0.28878388 0.022668397
0001b0 08 89 46 be e1 bb 33 be 66 49 de 3d e4 86 cb 3d
       -0.19388211 -0.17552139 0.108538434 0.09937838
0001c0 67 2d 58 be d5 f0 26 be c8 74 ac 3e 9c 09 36 3b
       -0.2111107 -0.16302808 0.33682847 0.0027776724
0001d0 52 f6 3f 3e 4f 21 44 be 6a d1 04 3e c1 3f aa 3e
       0.18746307 -0.19153331 0.1297051 0.33251765
0001e0 e9 26 a4 3e 8e 93 a8 3e cf 45 ee bd b8 bc dc be
       0.32060936 0.32925075 -0.11634409 -0.4311273
0001f0 f9 e2 cb 3d f5 22 1a bd 7e 44 f1 be 51 12 d5 3e
       0.09955401 -0.037630994 -0.47122568 0.41615537

conv2d_1.0.bias f4 [32]
000000 a8 78 f1 be e9 b1 ce 3e fe b3 19 3e cf 10 c1 bb
       -0.47162366 0.4037011 0.15010068 -0.0058918963
000010 fb ed 94 3c 2b 0f 2b 3e 08 6b fe 3c a0 5d 37 be
       0.018179884 0.16705005 0.031056896 -0.17906809
000020 14 03 02 3f 3b e2 5e be fc 29 1a be dc 7d e9 3e
       0.50785947 -0.21765988 -0.15055078 0.45603836
000030 a0 ce 40 3e a2 15 a5 3d e8 ce fb be 2d 6b 7d bd
       0.18828821 0.08060767 -0.49181294 -0.06186979
000040 db c6 18 ba 63 c8 c1 3d 5a 66 e5 3e 9d ae ba 3e
       -0.00058279716 0.09462049 0.4480465 0.36461344
000050 87 9e 5c be f2 c0 ee bb c9 b0 71 3e 7f dc 20 3e
       -0.21544848 -0.0072861845 0.23602594 0.15709113
000060 37 50 29 be 5d e2 80 3e 63 88 d8 be 03 7e ba 3d
       -0.16534506 0.251727 -0.42291555 0.09106066
000070 83 92 79 3e 88 a1 82 be 96 4e de 3e 05 71 85 3e
       0.24372296 -0.25513864 0.4341933 0.2606279

conv2d_2.0.weight f4 [25, 32, 8, 1]
000000 8c c6 08 80 7e f6 19 80 8e 30 35 80 91 b9 0a 00
       -8.05909e-40 -2.384312e-39 -4.8847e-39 9.84924e-40
000010 44 22 09 9b 1f ef 49 1c c1 ff 28 9c 27 bf 22 9c
       -1.1343446e-22 6.681438e-22 -5.591709e-22 -5.384836e-22
000020 ef 02 64 9a 1d 33 93 9a 18 72 74 9a 0a 3c b1 9a
       -4.7151665e-23 -6.088035e-23 -5.055018e-23 -7.330248e-23
000030 5f 99 c7 18 f8 4d eb 99 e4 e2 26 1a 43 a1 c9 19
       5.159516e-24 -2.4329922e-23 3.4511276e-23 2.0848046e-23
000040 43 25 19 80 60 2c 35 00 46 e6 16 80 b3 e8 30 00
       -2.309254e-39 4.8832e-39 -2.102987e-39 4.49158e-39
000050 11 8a c0 9a c4 58 0d 1c 56 83 3d 9c 00 01 e4 9b
       -7.96324e-23 4.6767713e-22 -6.27046e-22 -3.7720082e-22
000060 68 f2 38 9a 92 6b 6f 9a 74 da 42 9a 24 31 8e 9a
       -3.8246122e-23 -4.9510936e-23 -4.0294725e-23 -5.8809214e-23
000070 ab 48 30 80 87 0f 09 00 fd 2a 3d 80 1f a9 07 00
       -4.434172e-39 8.3209e-40 -5.617387e-39 7.03518e-40
000080 5a 7a 1f 98 29 08 4b 98 cb 30 26 98 f7 89 7b 98
       -2.061204e-24 -2.6241255e-24 -2.1479631e-24 -3.2510644e-24
000090 0b 2a 67 16 6d 21 aa 97 c2 02 e4 17 5e 1f 89 17
       1.8673298e-25 -1.099443e-24 1.4734851e-24 8.861336e-25
0000a0 f8 fc d7 9c b5 87 09 9d e9 37 e1 9c e2 4a 2a 9d
       -1.4292897e-21 -1.8201958e-21 -1.4903703e-21 -2.2538026e-21
0000b0 80 75 15 00 d8 cd 2e 00 67 fd 0f 80 6a f5 26 80
       1.970696e-39 4.298276e-39 -1.468436e-39 -3.577787e-39
0000c0 38 8e 12 00 96 bd 31 80 5f e7 04 00 1e d1 06 00
       1.704057e-39 -4.56795e-39 4.50342e-40 6.2603e-40
0000d0 c3 d9 db 9a 93 fa 22 1c 3a 11 5a 9c 2d 1e 03 9c
       -9.092809e-23 5.3925163e-22 -7.2152414e-22 -4.3383265e-22
0000e0 e1 01 92 9c f9 f5 b9 9c c8 48 98 9c e6 3f e6 9c
       -9.661955e-22 -1.2305856e-21 -1.007733e-21 -1.5236641e-21
0000f0 77 14 3b 00 ee b9 29 00 1c 63 37 80 b7 d1 3c 00
       5.425636e-39 3.831954e-39 -5.086506e-39 5.585361e-39
000100 c5 fb 19 80 f0 d9 03 80 28 a3 36 00 17 c5 30 80
       -2.386205e-39 -3.53688e-40 5.017646e-39 -4.478806e-39
000110 80 bc 06 9b 5f b3 45 1c f5 8e 84 9c 18 78 1f 9c
       -1.1145128e-22 6.5413664e-22 -8.771981e-22 -5.2763904e-22
000120 35 25 31 00 4d 3a 17 80 3a 8c 15 80 d1 d4 18 80
       4.513287e-39 -2.133131e-39 -1.978849e-39 -2.280396e-39
000130 01 5d 92 9a f1 3b d6 1b aa 81 10 9c 9e ec ac 9b
       -6.053444e-23 3.5442066e-22 -4.781319e-22 -2.8607923e-22
000140 8b bd 90 9c 53 59 b8 9c 8e 01 97 9c 85 2d e4 9c
       -9.578116e-22 -1.2199188e-21 -9.992744e-22 -1.5099541e-21
000150 c5 40 1a 80 da dc 2d 80 ae 52 0a 80 9d 0d 0e 00
       -2.410958e-39 -4.211824e-39 -9.48015e-40 1.29058e-39
000160 cb 71 90 9c 17 06 b8 9c b2 7d 96 9c e9 77 e3 9c
       -9.558535e-22 -1.2177673e-21 -9.958659e-22 -1.5052596e-21
000170 90 ce 2e 00 8b a3 83 9a d6 f0 4e 1c cd d1 16 00
       4.298533e-39 -5.444455e-23 6.8470956e-22 2.095643e-39
000180 15 72 20 9c 0b 02 4c 9c a9 df 26 9c 96 7d 7d 9c
       -5.3087007e-22 -6.750058e-22 -5.5213867e-22 -8.3872994e-22
000190 6f a2 04 00 63 84 e9 87 0a 0b c1 1a c1 34 00 00
       4.25612e-40 -3.5135753e-34 7.9840764e-23 1.8925e-41
0001a0 7a aa 9d 9b 99 6d c8 9b 91 a5 a3 9b d3 cd f8 9b
       -2.608364e-22 -3.315805e-22 -2.7073083e-22 -4.116117e-22
0001b0 86 94 28 00 c0 ab 19 80 9b a4 79 99 d5 19 35 80
       3.7267e-39 -2.3575e-39 -1.290624e-23 -4.876548e-39
0001c0 87 d7 3e 00 1c 31 45 80 68 91 0b 80 b6 75 3f 00
       5.771117e-39 -6.354266e-39 -1.062352e-39 5.827863e-39
0001d0 54 a4 0b 9b 78 88 87 15 c1 d3 08 00 f7 0e c0 9b
       -1.1550908e-22 5.4741375e-26 8.10647e-40 -3.1773406e-22
0001e0 95 10 0b 80 b3 ca 02 80 66 b4 0e 80 de 52 03 80
       -1.016139e-39 -2.56386e-40 -1.350412e-39 -3.05234e-40
0001f0 a6 29 b3 99 e3 96 fe 1a ec e6 37 9b 3f 1f cf 9a
       -1.8524988e-23 1.0529571e-22 -1.521202e-22 -8.5663674e-23
000200 e0 34 31 00 d0 43 3d 80 b0 02 45 00 90 bd 09 00
       4.518907e-39 -5.626292e-39 6.337613e-39 8.94522e-40
000210 c0 39 20 00 10 a5 2a 00 50 e9 34 00 40 a6 2b 00
       2.959453e-39 3.916304e-39 4.859143e-39 4.008566e-39
000220 19 f3 39 80 d3 61 22 00 07 7a 3b 80 0f 98 21 80
       -5.32183e-39 3.1575e-39 -5.46207e-39 -3.08512e-39
000230 0e 38 de 9a 34 52 24 1c 09 f8 5b 9c 2c 48 04 9c
       -9.190761e-23 5.4369293e-22 -7.27816e-22 -4.3768416e-22
000240 a1 68 a2 9c 47 e5 ce 9c 64 5c a9 9c 76 e2 ff 9c
       -1.0747307e-21 -1.3691203e-21 -1.1207364e-21 -1.6933023e-21
000250 47 af 18 00 6f ee d3 95 21 f5 1d 1c 12 e4 13 80
       2.26693e-39 -8.5598403e-26 5.2263764e-22 -1.82669e-39
000260 df 2c db 98 6f f5 1b 99 2e f3 03 99 b7 f8 10 99
       -5.665548e-24 -8.062877e-24 -6.821651e-24 -7.494853e-24
000270 0c 1b c9 17 24 16 39 98 e4 d6 c2 18 04 fa 68 18
       1.2996148e-24 -2.3921868e-24 5.036481e-24 3.0111523e-24
000280 88 41 9a 9c 5a 74 c4 9c 06 b5 a0 9c 0e 0f f3 9c
       -1.0207805e-21 -1.3000268e-21 -1.0634705e-21 -1.6084283e-21
000290 d1 3b 0b 00 1f 76 0b 80 29 1e 2a 00 b1 73 40 80
       1.031649e-39 -1.052564e-39 3.86791e-39 -5.918974e-39
0002a0 80 50 37 80 a0 7f 45 00 f0 0b 2d 00 f0 2d 13 80
       -5.07983e-39 6.382432e-39 4.13688e-39 -1.761354e-39
0002b0 b0 12 22 00 e0 b2 14 00 e0 e7 00 00 c0 2d 0a 00
       3.12911e-39 1.900878e-39 8.3181e-41 9.34767e-40
0002c0 27 20 dc 9b a3 0c 0c 9c bd a3 e5 9b f5 be 2d 9c
       -3.6416725e-22 -4.6338447e-22 -3.7990685e-22 -5.7487705e-22
0002d0 c2 04 98 99 ee ca 6a 9b 1d 11 9d 1b 50 74 27 00
       -1.5718353e-23 -1.9421596e-22 2.598453e-22 3.62331e-39
0002e0 30 2d 34 80 95 ab 39 10 af b4 25 00 c0 e2 13 00
       -4.791656e-39 3.6617e-29 3.46273e-39 1.826217e-39
0002f0 7a c7 0d 9a 1b bf 53 1b 09 8b 8d 9b 8b 08 2a 9b
       -2.9319252e-23 1.751526e-22 -2.3416343e-22 -1.4064831e-22
000300 15 c7 15 9d 68 bb 3e 9d 5f 26 1c 9d 58 30 6c 9d
       -1.9822909e-21 -2.5243177e-21 -2.0666265e-21 -3.1259333e-21
000310 52 38 36 80 3b 77 30 00 19 10 14 80 2a cb 00 80
       -4.979321e-39 4.450876e-39 -1.842485e-39 -7.2882e-41
000320 03 48 13 80 df 10 07 0d a8 36 36 80 db 6d 0c 00
       -1.770707e-39 4.1620395e-31 -4.978724e-39 1.141435e-39
000330 fa e3 7b 9a 0c 48 b6 1b 13 11 f5 9b 23 89 93 9b
       -5.208974e-23 3.0155933e-22 -4.0542884e-22 -2.4407733e-22
000340 37 45 b7 0f 9c 2d 38 80 b2 31 2c 9c 80 ff f0 12
       1.8071854e-29 -5.15915e-39 -5.6974256e-22 1.5209115e-27
000350 41 07 20 00 32 c8 11 00 08 07 3c 80 83 9d 0c 80
       2.941338e-39 1.63302e-39 -5.512652e-39 -1.15853e-39
000360 32 e3 04 80 69 07 1d 00 13 58 19 80 a6 47 03 80
       -4.48844e-40 2.665888e-39 -2.327482e-39 -3.01209e-40
000370 46 1b bc 99 48 1f 0d 1b fa 20 3c 9b 1d 66 e2 9a
       -1.944976e-23 1.1673354e-22 -1.5561651e-22 -9.363638e-23
000380 cb 69 38 1a 7c 3b 69 1a ee eb 3f 1a bd 34 94 1a
       3.8135767e-23 4.8231322e-23 3.9688457e-23 6.129657e-23
000390 3e b0 7e 98 53 4c c5 19 a6 45 01 9a 64 18 9d 99
       -3.291771e-24 2.040015e-23 -2.6732836e-23 -1.6243271e-23
0003a0 09 48 3c 9c 9b e4 6f 9c 56 a0 44 9c cf 58 94 9c
       -6.2297085e-22 -7.937393e-22 -6.505819e-22 -9.816775e-22
0003b0 12 d0 34 80 bb e5 2b 80 89 2a 1e 00 e3 38 0a 80
       -4.850087e-39 -4.031338e-39 2.770324e-39 -9.38762e-40
0003c0 1b cd 20 9b e2 5e 4b 9b 81 93 25 9b 53 03 80 9b
       -1.3301163e-22 -1.6822425e-22 -1.3696141e-22 -2.1177972e-22
0003d0 86 db 54 19 d2 ca ad 9a 15 08 e3 1a 81 99 88 1a
       1.10044755e-23 -7.18788e-23 9.3898057e-23 5.649628e-23
0003e0 62 1a 7d 98 4e d9 b4 98 d2 a8 bf 98 51 83 cc 98
       -3.2712804e-24 -4.674833e-24 -4.9542808e-24 -5.286536e-24
0003f0 47 cc 9d 17 a2 6c 91 97 75 06 44 18 87 02 0b 18
       1.0197454e-24 -9.397828e-25 2.5335666e-24 1.7966605e-24

conv2d_2.0.bias f4 [25]
000000 61 a3 dd 12 5f 11 04 bd ab 31 8c 04 cc d0 d7 23
       1.3987337e-27 -0.03224313 3.2959455e-36 2.3398776e-17
000010 e1 11 70 8d c0 c9 4a 06 24 64 a0 85 be 75 06 8d
       -7.397723e-31 3.81402e-35 -1.5083114e-35 -4.1433665e-31
000020 a1 62 57 3d d1 ff 93 84 cd 66 14 85 da e8 99 bc
       0.052584294 -3.4794464e-36 -6.977808e-36 -0.01878779
000030 0a 39 08 3d 40 4c 28 80 c3 6f e4 1b 3a 39 4d 3d
       0.03325752 -3.700773e-39 3.779166e-22 0.050103404
000040 79 16 a1 87 3d cf a0 3d d0 52 f9 00 cd 7a 4d 10
       -2.4237796e-34 0.078520276 2.2896746e-38 4.0523724e-29
000050 e6 90 a7 04 c0 14 b8 1a 18 db 27 01 07 cf e4 3c
       3.939458e-36 7.613414e-23 3.0830248e-38 0.02793075
000060 4d f9 02 00
       2.73103e-40

conv2d_3.0.weight f4 [50, 1, 4, 25]
000000 ab 10 25 80 d6 6c 5f 97 5e 89 17 00 c8 84 14 80
       -3.403893e-39 -7.2192556e-25 2.161494e-39 -1.884343e-39
000010 05 4d 07 00 46 3d 37 00 55 91 22 00 52 cb 17 00
       6.70478e-40 5.072933e-39 3.174542e-39 2.185154e-39
000020 a3 1c 83 96 f3 66 3d 80 cd 7d 31 80 04 f1 fc 96
       -2.1182264e-25 -5.638896e-39 -4.545068e-39 -4.0864898e-25
000030 cd 66 e4 96 ff 87 3f 00 f6 57 42 00 c5 2d 10 97
       -3.6900263e-25 5.834422e-39 6.092697e-39 -4.658668e-25
000040 5e eb 45 00 05 10 46 96 50 6c 38 00 c1 fb 25 80
       6.421083e-39 -1.5999367e-25 5.181643e-39 -3.488226e-39
000050 9c 67 3d 80 54 b0 3c 80 e0 34 15 00 61 d4 dc 96
       -5.639133e-39 -5.573384e-39 1.947513e-39 -3.5676947e-25
000060 1e 82 09 80 cb f7 12 00 94 91 5f 97 62 2e 19 80
       -8.73197e-40 1.74193e-39 -7.223893e-25 -2.312526e-39
000070 a2 ff 25 80 e1 74 27 80 19 1e 0a 00 73 b7 07 00
       -3.489617e-39 -3.623513e-39 9.29152e-40 7.08658e-40
000080 ad c5 17 00 9b 8f 82 96 86 04 2c 00 de 47 2a 00
       2.183129e-39 -2.109326e-25 4.042385e-39 3.882872e-39
000090 aa 4c fd 96 c4 79 e4 96 b9 dd 3c 00 e1 a9 0a 80
       -4.0922736e-25 -3.6912232e-25 5.589669e-39 -9.79296e-40
0000a0 1f 41 10 97 d1 c7 01 80 38 34 46 96 10 1e 37 00
       -4.6611104e-25 -1.63516e-40 -1.601079e-25 5.061737e-39
0000b0 0a 76 24 00 ac 9d 3f 80 d8 d9 3e 00 a0 35 16 00
       3.348422e-39 -5.842198e-39 5.771948e-39 2.039618e-39
0000c0 ab d9 dc 96 04 a2 41 00 c1 cd 08 00 de a0 5f 97
       -3.5680285e-25 6.027428e-39 8.08495e-40 -7.225823e-25
0000d0 04 b3 0f 80 12 6e 2c 80 46 f2 16 00 31 97 26 00
       -1.441751e-39 -4.080248e-39 2.107292e-39 3.543986e-39
0000e0 8f e9 25 80 02 8b 17 00 07 42 82 96 55 28 45 80
       -3.481698e-39 2.162083e-39 -2.1044302e-25 -6.351118e-39
0000f0 5c 2a 3b 80 a5 35 fd 96 f6 b7 e4 96 9f c2 20 80
       -5.43349e-39 -4.090821e-25 -3.6951482e-25 -3.008553e-39
000100 82 68 00 80 96 59 10 97 04 0d 09 00 a5 cd 45 96
       -3.749e-41 -4.6641983e-25 8.31189e-40 -1.5978423e-25
000110 80 c0 37 00 af 66 32 00 a1 54 1f 80 6e bb 26 80
       5.120008e-39 4.628611e-39 -2.87726e-39 -3.556986e-39
000120 d0 55 15 00 76 bc dc 96 91 8a 28 00 2b 59 00 80
       1.959329e-39 -3.5661853e-25 3.723128e-39 -3.1987e-41
000130 a4 a9 5f 97 6a b7 15 80 b3 20 01 00 79 0a 45 00
       -7.2269303e-25 -1.994342e-39 1.03566e-40 6.340406e-39
000140 7b 2a 3b 00 74 7c 06 00 9c a8 18 00 10 0a 82 96
       5.433533e-39 5.95658e-40 2.264538e-39 -2.1008983e-25
000150 f6 ac 40 80 15 71 04 80 37 8f fd 96 01 b4 e4 96
       -5.939518e-39 -4.07908e-40 -4.0964736e-25 -3.6948985e-25
000160 05 99 0d 80 e4 73 15 80 4c 6e 10 97 2c 01 1b 00
       -1.248755e-39 -1.970119e-39 -4.6668124e-25 2.479979e-39
000170 5d d4 45 96 c0 c8 37 00 1a 7b 2c 00 57 35 22 80
       -1.5980543e-25 5.122968e-39 4.084922e-39 -3.141542e-39
000180 00 08 18 00 60 80 14 00 ba ce dc 96 bb 99 1a 80
       2.206922e-39 1.882762e-39 -3.567338e-25 -2.442871e-39
000190 36 c3 fa 1b 4c 7a 24 3e 26 08 2c 88 1a 14 11 b2
       4.1485183e-22 0.16062278 -5.1768946e-34 -8.444681e-09
0001a0 f4 e0 13 17 57 ea 89 08 b9 f9 c4 04 6b 26 fd 15
       4.7782192e-25 8.300481e-34 4.6308713e-36 1.022465e-25
0001b0 a9 38 08 bd 8d 8e dd 0d 80 ac 1e 80 30 03 11 3e
       -0.03325716 1.3654494e-30 -2.816946e-39 0.14161372
0001c0 7c 79 8b 3c d0 f8 3c 00 48 9d 81 a5 58 29 c7 bc
       0.017025702 5.599387e-39 -2.248451e-16 -0.024311706
0001d0 10 82 44 80 71 a7 ea 3c 23 9e bb 05 32 24 86 99
       -6.291471e-39 0.028644295 1.7643486e-35 -1.3869894e-23
0001e0 d6 f8 7a 08 25 38 dc a5 f9 ce c7 85 2e 4b 8e bd
       7.5524144e-34 -3.8201961e-16 -1.87899e-35 -0.06947933
0001f0 1d 57 95 a9 bf 15 fb 1b 36 ee 42 bd d0 d5 2d 88
       -6.632041e-14 4.153852e-22 -0.047590457 -5.231163e-34
000200 cf 6a 12 b2 41 45 14 17 8a 26 8a 08 75 f1 c4 04
       -8.522604e-09 4.790879e-25 8.314633e-34 4.6301122e-36
000210 fb f3 fc 15 a6 c1 c9 3c b6 62 dd 0d 60 3a 1d 80
       1.0216692e-25 0.024628472 1.364394e-30 -2.68417e-39
000220 37 fd e3 3d ce d1 b6 3b e0 77 3e 00 ea 8c 81 a5
       0.11132281 0.00557921 5.736804e-39 -2.247342e-16
000230 2f 4a b1 bc 60 39 44 80 11 74 07 bd bf 12 bc 05
       -0.021641819 -6.265396e-39 -0.033069674 1.7686321e-35
000240 7a 25 86 99 54 db 7b 08 cd f8 db a5 c1 7d c6 85
       -1.3870412e-23 7.5790384e-34 -3.8159038e-16 -1.8666025e-35
000250 20 85 8b bd bb 56 93 a9 6e 66 fa 1b 5b 3c e1 3d
       -0.06812501 -6.543157e-14 4.1425224e-22 0.1099784
000260 f6 39 2e 88 b1 44 13 b2 ae 95 14 17 c0 3d 8a 08
       -5.2429353e-34 -8.572145e-09 4.80103e-25 8.32009e-34
000270 df ac c4 04 11 fa fc 15 25 cd 62 3d cc 0a de 0d
       4.6238136e-36 1.02176525e-25 0.055371422 1.3684406e-30
000280 e0 15 1e 80 e3 1d 18 3d 96 f3 8b 3d d0 f2 3c 00
       -2.762912e-39 0.037137877 0.0683357 5.597234e-39
000290 60 9d 81 a5 4e 88 9b bd b0 e0 44 80 1f f1 01 bd
       -2.2484574e-16 -0.075943574 -6.325416e-39 -0.03172409
0002a0 08 6b bc 05 8b da 85 99 40 e8 7b 08 31 dd db a5
       1.7718752e-35 -1.3840146e-23 7.5805574e-34 -3.814033e-16
0002b0 2f 2a c5 85 69 8b 88 bd 88 8e 9a a9 cf 78 fa 1b
       -1.8541287e-35 -0.066672154 -6.863699e-14 4.1437101e-22
0002c0 4f f0 95 3d 3f b5 2e 88 7d 37 13 b2 2c ba 14 17
       0.07321226 -5.2574274e-34 -8.569143e-09 4.805636e-25
0002d0 09 09 8a 08 80 bf c4 04 0d c2 fc 15 c7 2e b3 3d
       8.307697e-34 4.6255244e-36 1.0208815e-25 0.087491564
0002e0 ba 89 dd 0d 80 35 1d 80 39 5d 23 be 31 9b 2f 3d
       1.3653333e-30 -2.682422e-39 -0.1595353 0.04287261
0002f0 00 87 3d 00 13 8f 81 a5 01 4e 14 3d 70 60 44 80
       5.650394e-39 -2.2474884e-16 0.036207203 -6.279409e-39
000300 61 49 a5 bd ad 0a bd 05 a2 53 85 99 f9 db 79 08
       -0.080706365 1.7777396e-35 -1.3785657e-23 7.518929e-34
000310 9b a8 db a5 cc b0 c4 85 e2 a0 90 bd 5e b6 9b a9
       -3.8104696e-16 -1.8496696e-35 -0.07061936 -6.9150184e-14
000320 1e c3 10 80 00 c2 29 80 93 4f 1b 00 c3 cf 42 80
       -1.539363e-39 -3.83485e-39 2.508104e-39 -6.135674e-39
000330 36 2e 0c 80 da 4b 1b 00 70 11 41 80 18 6a 40 80
       -1.118603e-39 2.506769e-39 -5.975563e-39 -5.915531e-39
000340 10 fe 3a 00 dc 5b 33 80 aa 5b 0b 80 d0 24 0f 80
       5.417599e-39 -4.716563e-39 -1.043073e-39 -1.390738e-39
000350 50 e9 2b 80 08 f8 23 80 11 e1 02 80 20 05 02 00
       -4.032623e-39 -3.303219e-39 -2.6441e-40 1.8551e-40
000360 bb 8e 39 80 80 a8 08 80 a9 a6 22 80 d7 6e 0d 00
       -5.285825e-39 -7.9513e-40 -3.182193e-39 1.233623e-39
000370 c3 ed 45 80 3c c3 10 80 30 0a 39 00 c0 34 22 00
       -6.421942e-39 -1.539405e-39 5.238278e-39 3.14133e-39
000380 5e f9 3a 00 f6 89 12 00 60 64 27 80 6b 68 1e 00
       5.415915e-39 1.70253e-39 -3.617592e-39 2.792523e-39
000390 ea a4 08 80 59 13 1c 80 09 90 0f 00 e2 6f 2f 00
       -7.93844e-40 -2.578335e-39 1.429203e-39 4.356404e-39
0003a0 8c 9c 35 80 00 45 3b 00 02 1a 3c 80 ad d4 23 00
       -4.92344e-39 5.443047e-39 -5.51946e-39 3.290536e-39
0003b0 e0 98 0b 80 60 a5 2b 80 fc 02 38 00 22 c3 06 80
       -1.065032e-39 -4.008252e-39 5.143858e-39 -6.21013e-40
0003c0 80 20 01 00 ad 06 21 00 40 34 09 80 8e 03 3b 80
       1.03494e-40 3.032966e-39 -8.45263e-40 -5.41957e-39
0003d0 4e c3 2b 00 bf d3 02 80 8b 3d 02 00 00 0e 39 00
       4.018988e-39 -2.59631e-40 2.05748e-40 5.239646e-39
0003e0 e0 83 21 00 f4 70 11 80 af 65 23 00 00 c2 29 80
       3.077879e-39 -1.601723e-39 3.25072e-39 -3.83485e-39
0003f0 39 b9 3c 00 d3 c8 31 80 c8 c9 03 00 b0 ee 33 80
       5.576575e-39 -4.571981e-39 3.47892e-40 -4.769235e-39

conv2d_3.0.bias f4 [50]
000000 d2 c7 8a 97 a0 e0 e7 bc 58 e3 26 81 57 51 ad 3d
       -8.968483e-25 -0.028305352 -3.0652496e-38 0.0846278
000010 77 fb e8 3d d0 4d 39 82 df e6 a6 0c 71 12 d0 82
       0.11376088 -1.3613985e-37 2.57153e-31 -3.0573438e-37
000020 09 35 12 3e 54 ca cb 3d 57 26 08 84 90 15 07 00
       0.14278044 0.099507004 -1.6004328e-36 6.50584e-40
000030 8a 6c 5b 84 40 08 a1 80 80 df 02 00 c2 07 80 3d
       -2.5793165e-36 -1.4788474e-38 2.63848e-40 0.0625148
000040 a8 b6 7a 82 b0 0b 20 80 30 64 0e 00 2c f6 ff 84
       -1.8419519e-37 -2.942929e-39 1.321637e-39 -6.0176285e-36
000050 6e 87 bd 8f 8e 96 2f 15 ed 5b 04 3e 9e b7 54 3d
       -1.8689005e-29 3.5459735e-26 0.12925692 0.051932923
000060 cd ec 81 3d 0a b4 e9 3d 76 d1 01 04 ff 20 6f 85
       0.06343994 0.11411293 1.5260057e-36 -1.12437864e-35
000070 6b 59 21 88 0d 31 b5 89 b0 4a 2e 80 fe d6 da 04
       -4.8554285e-34 -4.3620292e-33 -4.251226e-39 5.1448993e-36
000080 be 3e 70 82 74 1d 89 09 92 48 a6 0e a7 a6 8a 3d
       -1.7650421e-37 3.3009248e-33 4.0992042e-30 0.06770068
000090 f0 18 3c 80 08 a1 f8 85 f5 60 00 3d b8 29 cd 01
       -5.519076e-39 -2.3380961e-35 0.031342465 7.536497e-38
0000a0 4d a3 da 04 50 65 87 00 59 bf 53 8d 84 dd c1 01
       5.140152e-36 1.2434136e-38 -6.524972e-31 7.121486e-38
0000b0 12 9d 85 85 f9 e4 fa 3d ba 42 95 3d 66 33 aa 3c
       -1.2564958e-35 0.12250704 0.07288118 0.020776462
0000c0 40 5a 63 00 05 a1 5a 3d
       9.12409e-39 0.053376216

conv2d_4.0.bias f4 [100]
000000 d3 fb 82 3a 9c 6e 80 bc 38 41 85 03 a2 8a 5e 3d
       0.0009993262 -0.015677743 7.832011e-37 0.05433143
000010 3d 35 83 3a 70 88 21 00 23 0d ad bb 45 18 9f 02
       0.0010010373 3.079516e-39 -0.005281107 2.337688e-37
000020 15 8c 61 3c 90 c1 08 00 9c e9 62 bb b0 2e 14 80
       0.013766308 8.04121e-40 -0.0034624105 -1.853458e-39
000030 10 cc 38 02 68 61 09 97 b8 ed d3 bc 8a 62 75 00
       1.3576748e-37 -4.439003e-25 -0.02587019 1.0780102e-38
000040 86 29 4c 02 e1 d0 c5 02 50 cc 24 01 e0 5c 29 00
       1.499947e-37 2.906644e-37 3.026863e-38 3.798573e-39
000050 5a 7f 0a 3c bf e4 27 bc a8 2e 1f 81 50 e8 34 00
       0.008453215 -0.010247408 -2.9237162e-38 4.858784e-39
000060 20 74 76 02 77 44 1c 0c 90 99 45 00 8a 3b 70 03
       1.8106552e-37 1.2038406e-31 6.391737e-39 7.059801e-37
000070 95 09 b8 02 92 77 45 3a 74 a6 97 81 31 ed 71 3a
       2.704187e-37 0.0007532771 -5.570749e-38 0.00092287647
000080 78 1f 3b 01 ce 8f 71 bb d8 19 19 01 a0 45 02 80
       3.4369053e-38 -0.0036859396 2.8120204e-38 -2.08648e-40
000090 b0 d9 09 83 b0 17 23 80 fd 6c 02 3d 3a 40 f4 bc
       -4.0510575e-37 -3.22274e-39 0.03184222 -0.029815782
0000a0 40 5c f1 80 40 f8 41 00 63 27 0a 84 55 55 35 0c
       -2.2165448e-38 6.058363e-39 -1.6239908e-36 1.3969411e-31
0000b0 28 f1 15 0b a0 bc 42 81 3f 58 c9 83 a8 6d 1a 80
       2.8877782e-32 -3.5767504e-38 -1.18339785e-36 -2.42706e-39
0000c0 a8 82 d4 81 40 fa 13 80 bc 91 73 82 90 d4 26 00
       -7.8063983e-38 -1.834647e-39 -1.7894644e-37 3.566002e-39
0000d0 10 49 01 00 d5 05 4d bc 90 64 12 00 d0 9a 00 80
       1.18045e-40 -0.0125135975 1.689114e-39 -5.5536e-41
0000e0 d0 9f 8f 84 00 99 08 80 80 a6 ec bb ff d0 fe bc
       -3.3765903e-36 -7.8957e-40 -0.007221997 -0.031105516
0000f0 b0 d3 20 81 b0 93 b7 00 e0 b8 3e 00 64 08 49 02
       -2.9539237e-38 1.6858876e-38 5.760121e-39 1.4769556e-37
000100 ec 7d 59 89 a9 ab 3e 3d 1d 35 c2 8d ab 26 60 bc
       -2.6179633e-33 0.046550427 -1.196896e-30 -0.013681094
000110 60 71 4d 0b 30 4a 1c 80 e0 20 45 00 46 11 03 3c
       3.9566858e-32 -2.598007e-39 6.348443e-39 0.007999724
000120 52 84 85 0b 25 bc 85 02 b1 1d 32 3c 38 1d df 87
       5.142883e-32 1.9650583e-37 0.010871337 -3.3570484e-34
000130 30 99 2c 00 00 49 17 80 11 d5 20 86 81 db 5e bb
       4.095715e-39 -2.138404e-39 -3.0249192e-35 -0.0034005346
000140 4a 17 12 82 37 fa 7f 3c d1 c3 04 ba c2 06 06 3d
       -1.073307e-37 0.015623621 -0.00050645793 0.03272129
000150 d2 ce 13 03 2e d9 3e 82 10 dc 1c 00 76 6f cd 04
       4.3436835e-37 -1.4021323e-37 2.650337e-39 4.829763e-36
000160 30 72 6a bc e2 98 52 83 40 8f 27 00 90 3b 2c 00
       -0.014309451 -6.1888954e-37 3.632973e-39 4.062129e-39
000170 60 3e 07 04 ac cc 47 10 b0 89 09 80 62 19 44 3d
       1.5897815e-36 3.9403504e-29 -8.75912e-40 0.04787577
000180 35 30 d1 ba 50 53 bb 81 24 04 1f 82 e7 4a ce 0b
       -0.0015959801 -6.88125e-38 -1.1682663e-37 7.9461014e-32

batchNorm_2.weight f4 [100]
000000 a0 17 11 3e 4f 1d 84 3f 26 3b f1 06 a0 6d 6f 3f
       0.14169168 1.0321444 9.0741035e-35 0.9352665
000010 39 62 16 be 50 dc 10 00 fa fb 77 3f a4 97 fd 02
       -0.14685906 1.548401e-39 0.9686886 3.7262046e-37
000020 e4 97 c2 3e 25 44 82 02 3a 42 90 3f a0 a0 2a 01
       0.38006508 1.9140896e-37 1.1270211 3.1339311e-38
000030 b1 86 23 83 46 ea 74 1f 13 ca 8a 3f 35 cf 76 08
       -4.8056013e-37 5.1862796e-20 1.0842918 7.4271503e-34
000040 45 40 05 05 4f b6 a5 83 4a cc c6 8b 00 e4 55 80
       6.2654344e-36 -9.739684e-37 -7.6574206e-32 -7.887808e-39
000050 e1 05 7b 3f 1f 08 e8 3a d1 6a 4e 09 39 8e 37 0a
       0.98055845 0.0017702616 2.4846573e-33 8.8378786e-33
000060 89 98 aa 83 d5 a2 2d 91 a0 e2 06 00 7b cb c2 8b
       -1.0026722e-36 -1.369747e-28 6.32311e-40 -7.5032245e-32
000070 26 67 dd 86 3d 46 64 3f e0 36 1e 00 38 3f 3b 3f
       -8.3282523e-35 0.89169675 2.77475e-39 0.7314334
000080 9d ff 2f 87 d6 39 e6 3e 10 7d 09 00 32 e0 ba 83
       -1.3240655e-34 0.44966 8.71383e-40 -1.098357e-36
000090 20 4e 0f 00 ff 68 ad 02 27 1e 7a 3f 22 c9 84 3f
       1.405558e-39 2.548033e-37 0.9770226 1.0373881
0000a0 b0 7b 1c 00 c0 43 39 00 40 34 58 81 ac 79 c9 92
       2.615765e-39 5.258927e-39 -3.9710422e-38 -1.2714878e-27
0000b0 73 7e 7d 8d 10 0c 1e 80 25 b5 85 02 d0 a7 d6 01
       -7.811385e-31 -2.759392e-39 1.9646565e-37 7.8851984e-38
0000c0 70 65 5e 00 46 a2 17 8c f0 9c 71 81 a0 d4 11 00
       8.668926e-39 -1.1681449e-31 -4.4377306e-38 1.637479e-39
0000d0 a2 a9 6f 84 dd 60 6c 3f c0 3a b4 80 40 42 06 00
       -2.8172207e-36 0.923353 -1.6551465e-38 5.74779e-40
0000e0 58 9e d3 81 34 a1 02 89 56 36 87 3f 54 40 6b 3f
       -7.773637e-38 -1.5723978e-33 1.0563457 0.9189503
0000f0 d0 43 16 01 41 67 95 83 84 9a 50 04 70 9a bd 01
       2.7599302e-38 -8.781139e-37 2.4521233e-36 6.964924e-38
000100 46 58 cb 05 58 12 68 3f 79 27 ec 0a de d4 68 3f
       1.9122455e-35 0.9065299 2.2740821e-32 0.9094981
000110 e7 25 fe 15 70 8e 88 80 b0 d5 21 80 ff cd 8e 3f
       1.0264958e-25 -1.2540724e-38 -3.107228e-39 1.1156615
000120 1b 95 d8 8f 4d 35 5a 83 2c 86 85 3f c8 ee 98 93
       -2.1356678e-29 -6.412563e-37 1.0431571 -3.860565e-27
000130 da 31 b4 03 50 c8 29 00 50 ad 11 03 a7 7b 6b 3e
       1.05908945e-36 3.837114e-39 4.2810623e-37 0.22996388
000140 b0 45 18 80 d9 63 a6 3e 62 c2 5b bc 61 f7 7b 3f
       -2.229051e-39 0.32498053 -0.013413044 0.98424345
000150 0d 80 10 04 f0 ff 27 00 d2 ca 83 83 7e f9 b6 89
       1.6985917e-36 3.673397e-39 -7.746053e-37 -4.4049528e-33
000160 20 a3 84 3f 9c 0d 16 80 80 89 2d 80 30 55 33 80
       1.0362282 -2.025263e-39 -4.181923e-39 -4.71417e-39
000170 22 1b ce 89 15 b4 62 1b c0 f2 02 80 00 d5 38 3f
       -4.961821e-33 1.875247e-22 -2.70753e-40 0.7220001
000180 a5 06 3a 3f a0 1c 27 00 e0 c7 26 00 50 6a 97 15
       0.7266639 3.591853e-39 3.56145e-39 6.1156146e-26

batchNorm_2.bias f4 [100]
000000 71 ba 7b bd 02 9c 52 bd ae 44 d7 3b 15 69 57 3d
       -0.0614571 -0.051418312 0.0065694666 0.05259045
000010 3d 6f ae ba b6 d5 8a 3c 7e 6f 24 bc 0d af 16 3b
       -0.0013308298 0.016947608 -0.010036347 0.0022992522
000020 4e 9a 73 bd e0 47 a3 3a 9f 3e df bd 6e 48 0e 3c
       -0.05947333 0.0012457334 -0.10900616 0.008684261
000030 16 c2 4a bc 92 57 2f 3c aa 1e fe 3b 31 4b df bc
       -0.012375375 0.010702031 0.0077551203 -0.027257534
000040 29 33 48 bd 3e f8 ad bc 54 da e0 bc b6 88 a5 bc
       -0.048876915 -0.021236535 -0.027447857 -0.02020679
000050 a6 7f cf 3d 90 df 08 bd 14 b3 05 3c b9 92 99 3b
       0.10131769 -0.03341633 0.008160371 0.00468668
000060 b2 55 38 3c 73 fd ca 3a 91 84 cb 3b b7 06 a1 bb
       0.0112509 0.0015486911 0.0062108715 -0.0049141305
000070 a6 3a 9f b9 8d 5c a1 3d 8a 68 69 bb 1b b7 8e 3c
       -0.0003037054 0.07878981 -0.0035615289 0.017421296
000080 06 ab 47 bc 77 9d 03 3d 71 b6 9d 3d 6c e2 70 3c
       -0.012186771 0.032132592 0.077008136 0.014702421
000090 29 6b 4e bd 4c 34 38 3c 09 fa 0e bd bd 9c 40 3d
       -0.050395165 0.011242937 -0.03490642 0.047024477
0000a0 e7 6f 26 bc 2a 5c de 3b db ec 19 bc d7 a3 f5 3b
       -0.010158516 0.006785889 -0.00939485 0.007496338
0000b0 c0 39 0f 3c 8a c7 ab bb d0 ce 09 bc b5 6b a1 ba
       0.008741796 -0.005242293 -0.008411124 -0.0012315424
0000c0 b3 51 c1 bd 1e 3f d6 3b 3a 36 23 bc 4e 2b 75 3c
       -0.09439411 0.006538286 -0.009961659 0.014963938
0000d0 7a 86 22 3b f6 63 83 bc c7 a4 87 3b 80 f6 08 bd
       0.0024799393 -0.016038876 0.004139516 -0.033438206
0000e0 87 27 8a 3c f2 11 f4 3b b4 74 32 3d 42 da f8 3d
       0.016864551 0.0074484283 0.043568328 0.121510044
0000f0 db 14 a3 3c 5a 06 17 3c 60 0e ab 3b fa 3f 6c bb
       0.019907406 0.009217823 0.0052202195 -0.0036048875
000100 34 54 31 ba e8 98 28 3d e0 f3 11 bc 43 97 78 3d
       -0.00067645614 0.041161448 -0.008908242 0.06069113
000110 42 5d c5 3a ad d8 3e bc af 79 30 3c aa 0f b2 3d
       0.00150577 -0.011648339 0.010771199 0.08694394
000120 b9 c0 8f ba 46 fc da bb 84 40 7c 3d 9a d5 81 3d
       -0.001096747 -0.0066829054 0.061584964 0.063395694
000130 d0 33 ac 3b 3d 3c 1e 3b fe d6 18 bc b8 db d3 bc
       0.0052552 0.0024144792 -0.009328602 -0.025861606
000140 2f b0 d3 3b 4d aa 4b bd f7 1c 0e 3c cd d6 20 3d
       0.0064602117 -0.04972296 0.008673898 0.03926735
000150 52 9f 74 bd 89 85 0e 3d f9 2c c7 bb d2 73 14 bb
       -0.059722252 0.034795318 -0.006078359 -0.0022652042
000160 73 c1 12 3d d0 cb b1 bb 1c 63 21 bd 8b a9 81 3c
       0.03582902 -0.0054259077 -0.03940116 0.015827915
000170 3b a3 32 bb fe cc b5 bc 7c f2 54 3c d2 69 cb 3c
       -0.0027257937 -0.022192474 0.012997266 0.024830732
000180 6a 9f 9e bd 69 50 b6 3c f9 8e 7c 3c 9f aa c1 bc
       -0.077452496 0.02225514 0.015414947 -0.023640929

batchNorm_2.running_mean f4 [100]
000000 a4 b7 02 3d 3a e4 3f 3d 04 00 00 00 6c 87 4c 3d
       0.031913415 0.046848513 6e-45 0.049933836
000010 07 5b 31 3e 04 00 00 00 9d 44 72 3e 15 ff 4d 00
       0.1731988 6e-45 0.23658986 7.16284e-39
000020 10 f7 2a 3e 04 00 00 00 e7 15 6d 3d 04 00 00 00
       0.1669581 6e-45 0.057882216 6e-45
000030 04 00 00 00 8d e5 b8 0a 77 ff dc 3d 04 00 00 00
       6e-45 1.7804903e-32 0.107909136 6e-45
000040 55 00 00 00 04 00 00 00 04 00 00 00 04 00 00 00
       1.19e-43 6e-45 6e-45 6e-45
000050 70 9b 48 3d 04 00 00 00 04 00 00 00 04 00 00 00
       0.04897636 6e-45 6e-45 6e-45
000060 87 a9 2f 00 04 00 00 00 04 00 00 00 04 00 00 00
       4.377083e-39 6e-45 6e-45 6e-45
000070 90 c5 19 03 8f 04 9a 3e 04 00 00 00 27 56 4d 3d
       4.518945e-37 0.30081603 6e-45 0.05013099
000080 04 00 00 00 72 9f 58 3e 04 00 00 00 04 00 00 00
       6e-45 0.21154574 6e-45 6e-45
000090 04 00 00 00 04 00 00 00 8b 17 1c 3e 1d 62 b4 3d
       6e-45 6e-45 0.15243356 0.08807776
0000a0 04 00 00 00 04 00 00 00 19 00 00 00 04 00 00 00
       6e-45 6e-45 3.5e-44 6e-45
0000b0 04 00 00 00 04 00 00 00 04 00 00 00 04 00 00 00
       6e-45 6e-45 6e-45 6e-45
0000c0 04 00 00 00 be 00 00 00 04 00 00 00 04 00 00 00
       6e-45 2.66e-43 6e-45 6e-45
0000d0 a1 00 00 00 d3 ac af 3e 04 00 00 00 04 00 00 00
       2.26e-43 0.34311542 6e-45 6e-45
0000e0 04 00 00 00 a5 72 04 00 2e 76 30 3d 7c 15 aa 3d
       6e-45 4.08469e-40 0.043081455 0.08304879
0000f0 04 00 00 00 2b 47 00 00 04 00 00 00 04 00 00 00
       6e-45 2.553e-41 6e-45 6e-45
000100 04 00 00 00 46 be 92 3e 04 00 00 00 74 58 0f 3e
       6e-45 0.28660792 6e-45 0.13998586
000110 c8 38 d9 0c 04 00 00 00 04 00 00 00 3a b4 55 3e
       3.3468318e-31 6e-45 6e-45 0.20869532
000120 46 00 00 00 04 00 00 00 18 e8 f9 3d 04 00 00 00
       9.8e-44 6e-45 0.122024715 6e-45
000130 04 00 00 00 04 00 00 00 04 00 00 00 04 00 00 00
       6e-45 6e-45 6e-45 6e-45
000140 04 00 00 00 0c 9a 96 3d 34 c7 75 3c 17 4e 6d 3e
       6e-45 0.07353601 0.015001107 0.2317432
000150 fc 01 00 00 04 00 00 00 04 00 00 00 04 00 00 00
       7.12e-43 6e-45 6e-45 6e-45
000160 07 02 84 3d 04 00 00 00 04 00 00 00 04 00 00 00
       0.06445699 6e-45 6e-45 6e-45
000170 04 00 00 00 71 ef 63 0c 04 00 00 00 69 41 87 3e
       6e-45 1.7559498e-31 6e-45 0.2641709
000180 16 e2 9a 3d 04 00 00 00 04 00 00 00 b3 16 05 00
       0.07562654 6e-45 6e-45 4.6732e-40

batchNorm_2.running_var f4 [100]
000000 d4 d6 ca 37 b4 da 36 38 04 00 00 00 b5 ad 21 39
       2.4180314e-05 4.3595865e-05 6e-45 0.00015418867
000010 8a 01 37 38 04 00 00 00 f1 cb 63 38 04 00 00 00
       4.3632033e-05 6e-45 5.4310953e-05 6e-45
000020 f9 73 8e 38 04 00 00 00 0d f2 73 37 04 00 00 00
       6.792689e-05 6e-45 1.45402855e-05 6e-45
000030 04 00 00 00 04 00 00 00 ce 11 e6 37 04 00 00 00
       6e-45 6e-45 2.7426428e-05 6e-45
000040 04 00 00 00 04 00 00 00 04 00 00 00 04 00 00 00
       6e-45 6e-45 6e-45 6e-45
000050 6c 0a be 37 04 00 00 00 04 00 00 00 04 00 00 00
       2.2654618e-05 6e-45 6e-45 6e-45
000060 04 00 00 00 04 00 00 00 04 00 00 00 04 00 00 00
       6e-45 6e-45 6e-45 6e-45
000070 04 00 00 00 71 50 9d 38 04 00 00 00 02 49 82 37
       6e-45 7.501327e-05 6e-45 1.5531205e-05
000080 04 00 00 00 d7 88 e0 38 04 00 00 00 04 00 00 00
       6e-45 0.00010706641 6e-45 6e-45
000090 04 00 00 00 04 00 00 00 d5 2e bd 37 48 79 9e 37
       6e-45 6e-45 2.2552364e-05 1.8891544e-05
0000a0 04 00 00 00 04 00 00 00 04 00 00 00 04 00 00 00
       6e-45 6e-45 6e-45 6e-45
0000b0 04 00 00 00 04 00 00 00 04 00 00 00 04 00 00 00
       6e-45 6e-45 6e-45 6e-45
0000c0 04 00 00 00 04 00 00 00 04 00 00 00 04 00 00 00
       6e-45 6e-45 6e-45 6e-45
0000d0 04 00 00 00 0e e3 5b 39 04 00 00 00 04 00 00 00
       6e-45 0.00020970052 6e-45 6e-45
0000e0 04 00 00 00 04 00 00 00 14 2f bb 37 dc 5f b0 38
       6e-45 6e-45 2.231406e-05 8.410189e-05
0000f0 04 00 00 00 04 00 00 00 04 00 00 00 04 00 00 00
       6e-45 6e-45 6e-45 6e-45
000100 04 00 00 00 c3 72 5c 38 04 00 00 00 d2 e7 1c 38
       6e-45 5.2558968e-05 6e-45 3.7409198e-05
000110 04 00 00 00 04 00 00 00 04 00 00 00 f0 44 b3 38
       6e-45 6e-45 6e-45 8.548226e-05
000120 04 00 00 00 04 00 00 00 f4 29 b9 38 04 00 00 00
       6e-45 6e-45 8.829302e-05 6e-45
000130 04 00 00 00 04 00 00 00 04 00 00 00 04 00 00 00
       6e-45 6e-45 6e-45 6e-45
000140 04 00 00 00 2c 1c 20 38 79 1f 9b 36 05 99 8f 38
       6e-45 3.817321e-05 4.623024e-06 6.8472735e-05
000150 04 00 00 00 04 00 00 00 04 00 00 00 04 00 00 00
       6e-45 6e-45 6e-45 6e-45
000160 e8 18 29 37 04 00 00 00 04 00 00 00 04 00 00 00
       1.0078984e-05 6e-45 6e-45 6e-45
000170 04 00 00 00 04 00 00 00 04 00 00 00 71 9b 46 38
       6e-45 6e-45 6e-45 4.7351645e-05
000180 f5 a5 06 37 04 00 00 00 04 00 00 00 04 00 00 00
       8.025662e-06 6e-45 6e-45 6e-45

final_dense_1.0.weight f4 [100, 100]
000000 4e 86 9a 3d de cc 60 3d d2 80 bb bc 94 e8 fb 3c
       0.07545148 0.054882877 -0.022888575 0.03075055
000010 91 d1 8f 3d bf f9 fc bc c1 12 a7 3c 43 83 be 3b
       0.070223935 -0.030880807 0.020394685 0.0058139875
000020 af 35 51 3c 29 6f b7 bd 13 eb 4c 3c 5d 82 aa bc
       0.012769147 -0.08956749 0.012507218 -0.020814115
000030 db cf fa bc f5 0c 81 bd 39 00 4f bc 80 f4 ac 3d
       -0.030616691 -0.063012995 -0.01263433 0.08445072
000040 66 b7 8f 3c 97 fc ac bc 18 38 53 3e 76 b5 b0 3c
       0.017543506 -0.021116538 0.20626867 0.021570902
000050 a0 54 11 3c 35 fe 16 3d 5a a9 a3 3d 2c 62 4e bd
       0.008870274 0.036863524 0.079912856 -0.050386593
000060 28 01 85 3c 8b 41 3d bd 9b 66 1c 3d 13 04 47 3d
       0.016235903 -0.046205085 0.03818379 0.04858787
000070 80 48 df bd 6c 5f b4 3d b9 4d 8d 3d e4 c7 b2 bd
       -0.109025 0.08807263 0.0689959 -0.08729532
000080 e1 ef 9a bc 9f a6 a1 be 8e 8f 63 3d 77 0e 91 bd
       -0.018913211 -0.31572434 0.055556826 -0.07082837
000090 2c 8e f0 3c 5d 97 1b bd 60 de 8f bd 8b 15 49 bd
       0.029364668 -0.03798615 -0.070248365 -0.04909281
0000a0 3b a8 30 3e eb 81 6b bd 33 af c4 3d 41 f3 43 bd
       0.17251675 -0.057496946 0.09603729 -0.047839407
0000b0 42 6e 95 bb 87 26 26 bb d5 12 1c 3d 6c 99 3a bd
       -0.004560263 -0.0025352554 0.038103897 -0.04555647
0000c0 ba bf 3f 3d 9c 4a e8 bd ac 3e 64 3d f2 87 84 bd
       0.046813704 -0.113423556 0.05572383 -0.06471242
0000d0 14 c4 1c bd dc 94 d2 3d c5 91 f2 bd e0 7a 9d 3c
       -0.038272932 0.10282299 -0.118442096 0.01922363
0000e0 88 29 c0 3c b9 fc 0a be a5 b8 18 3e c9 61 87 3d
       0.023457304 -0.13572969 0.14914186 0.06610448
0000f0 17 ad 41 bd 2b ab 27 bd d8 c8 08 bc ad 2f 46 3c
       -0.047284212 -0.040934723 -0.008348666 0.012096328
000100 47 69 c7 bd 50 e0 be 3d 3a 6b c8 3c c4 da 39 bd
       -0.09736877 0.09320128 0.024465192 -0.045374647
000110 10 34 51 bc ea 92 b0 3d 7d e8 7f bd 1d 0a ef 3c
       -0.01276876 0.08621772 -0.062477577 0.029179627
000120 24 cf c3 bc e0 80 a0 3d da ef 9b bd 7d 85 0d be
       -0.023902483 0.07837081 -0.076141074 -0.13820453
000130 ac a7 80 3c d9 11 69 bd 04 d5 c3 bb 1b 76 5e bd
       0.015704952 -0.056901786 -0.005976321 -0.054311853
000140 b8 a6 a8 bb ec 5a 12 3d 0a 14 84 bc a2 69 c7 3d
       -0.0051468275 0.03573124 -0.016122837 0.09736945
000150 79 7c c4 3b 71 ee 8b 3c 0f ab 35 3c d5 7c 4b 3d
       0.0059962836 0.017081471 0.011088147 0.049679596
000160 2f a9 c6 3d b3 c3 0a 3e d6 33 0b 3b 13 43 66 bd
       0.09700238 0.13551216 0.0021240613 -0.05621631
000170 16 d4 23 bd b2 f4 93 3d b1 69 35 bd 12 d9 4f 3d
       -0.039997183 0.07224406 -0.04429025 0.050744124
000180 9a 2e 8b bd 99 65 d9 3c a9 32 05 bb 70 22 7d 3b
       -0.06795998 0.026537703 -0.0020324385 0.0038625263
000190 da f2 c2 bc 05 83 a9 3b ea 9f d3 bb 19 c9 23 3b
       -0.023797441 0.0051730894 -0.006458272 0.002499169
0001a0 8a 9b 59 3c 31 ff 8d 3d b7 ea ab 3c 5e 51 b9 bc
       0.013281712 0.069334395 0.020985944 -0.022621807
0001b0 41 9f 1e be ad 14 2f bd a9 c4 02 bd 35 a1 83 3d
       -0.15490438 -0.042744327 -0.03192583 0.06427232
0001c0 b6 f7 75 bc 00 fb 19 bc b4 82 53 be 64 0e 03 bd
       -0.015012672 -0.009398222 -0.20655328 -0.031996146
0001d0 1d f1 6b 3c 14 03 68 bc e3 4a 12 bd ce f2 fd 3b
       0.014400748 -0.01416089 -0.03571595 0.007749892
0001e0 d8 f9 d5 bc c7 44 51 3d 37 1b de bb ec 33 4a bd
       -0.026120111 0.05109098 -0.0067781466 -0.049365923
0001f0 2d a1 74 3d c8 27 a1 bc e1 f0 1a 3d 29 af 87 bb
       0.05972402 -0.01967229 0.037827376 -0.0041407538
000200 c1 41 26 bc 3b 5a 48 3d 72 1b db 3b 64 16 2b be
       -0.010147513 0.048914175 0.0066866213 -0.1670776
000210 aa d8 88 bd 1c 98 b1 bd 8d 13 32 bd bc 63 3b bc
       -0.066819504 -0.08671591 -0.043475676 -0.011437353
000220 57 9f 94 bc a8 a2 09 3d 41 45 60 bd fa 9d 5a be
       -0.018142385 0.033602387 -0.054753546 -0.21349326
000230 bf 92 05 3d 95 47 00 3c 3f 45 ca 3d d0 26 0a bc
       0.03261065 0.0078295665 0.09876489 -0.008432105
000240 f5 c8 f8 ba 67 fb 8f bd c5 71 1c be 0e 78 f8 bd
       -0.0018980788 -0.07030373 -0.15277775 -0.121322736
000250 12 fd a3 3d 7b 24 89 bd 73 e0 94 bd 37 6a 44 3c
       0.08007254 -0.06696411 -0.07269373 0.011988214
000260 a6 10 d7 3b 34 ca c4 b9 f3 44 08 be 63 3b 01 3e
       0.006563264 -0.00037534686 -0.13307552 0.1262031
000270 67 39 de bd d8 73 ee bb 55 9f 86 3d 84 9b bb 3c
       -0.108507924 -0.0072769932 0.06573359 0.022901304
000280 5f 06 1c be f3 8f bf 3c c3 70 7d 3c fe a1 74 3d
       -0.15236805 0.02338407 0.015468779 0.0597248
000290 04 0a 87 bc 6c 65 39 3d 14 a7 f1 3d c4 63 68 bd
       -0.016484268 0.04526274 0.11799446 -0.05673577
0002a0 34 dd 26 bc ea 06 59 bc b6 21 47 bc 42 a3 dd 3b
       -0.010184575 -0.013246277 -0.012154033 0.0067638466
0002b0 5e 1e 5e 3c e3 12 b0 3d c7 74 d3 3d 92 c4 09 be
       0.013557045 0.08597352 0.10325008 -0.13453892
0002c0 69 dd 26 3d bf 2c b2 3d a3 33 b3 bc 7e 76 c5 3c
       0.040738497 0.08699941 -0.021875208 0.024104353
0002d0 d4 76 d2 bd 19 2f 3c be 95 80 ea bc a9 6b e0 bd
       -0.10276571 -0.18377341 -0.028625766 -0.109580345
0002e0 be 96 2d 3d f2 d3 2e 3c f4 84 85 bd 89 ba 14 3d
       0.042380087 0.010670649 -0.065194994 0.036310706
0002f0 1e 98 23 3d 8b cf 8a 3d b0 ae 97 3d 0f c4 a9 bb
       0.039939992 0.06777867 0.07406366 -0.0051808427
000300 54 ba fc bc 9f 3d 33 bc d8 1c ed bc 16 90 0d be
       -0.030850567 -0.010939985 -0.028944418 -0.13824496
000310 d4 e8 32 be 6a bc 99 3d a0 fd e0 bc c5 62 87 3d
       -0.1747163 0.0750664 -0.027464688 0.06610636
000320 43 7c 09 3e 55 86 86 bd f8 cf 81 3c 5a 90 03 be
       0.13426308 -0.065685906 0.015846238 -0.12848035
000330 57 75 af bc 7d 9f 6f 3d f0 f3 9b bc a6 ac 53 3d
       -0.021418257 0.05850171 -0.019037217 0.051678322
000340 26 12 97 bd e8 b3 56 bc 16 79 6a 3c 8d 75 c9 3c
       -0.073765084 -0.013104416 0.014311096 0.024592185
000350 ea 0e 6d bd ee 96 9c bd c3 f3 c2 bd 16 0d c9 bb
       -0.05787555 -0.07645975 -0.0951915 -0.006135593
000360 da df aa 3c 1d 20 49 bd ac 44 fc bd a0 27 95 bc
       0.020858694 -0.04910289 -0.123177856 -0.018207371
000370 40 5c 72 ba 2d 33 7a 3d b0 a4 be 3c f5 75 ec 3c
       -0.00092453137 0.06108396 0.023271888 0.02886484
000380 ed 56 ce 3d 88 88 ce 39 cf 22 62 bd 28 8d 09 3d
       0.100751735 0.00039393106 -0.055208977 0.033581883
000390 7f 06 b2 3d 53 81 91 bc 18 e2 ce 3a 0f 78 01 3e
       0.08692645 -0.017761862 0.0015783934 0.12643455
0003a0 ee c9 84 bd 90 99 88 bd b5 68 5a bd d4 ba b5 3d
       -0.064838275 -0.06669915 -0.053322513 0.08873525
0003b0 d1 2c 9f bb f2 2d a9 3d 5d 02 bb bd 6e 5b bf 3d
       -0.0048576375 0.082607165 -0.0913131 0.09343611
0003c0 81 1e 4a bc 3e fe 4c 3d 77 29 7a bd 49 7e c6 3c
       -0.012336374 0.05004715 -0.0610747 0.02423014
0003d0 69 da e1 bb 14 9e 67 3c 1e ab 44 3d d6 d7 ab 3d
       -0.0068924916 0.01413681 0.048014753 0.08390777
0003e0 d3 b7 f3 bd 0f 01 a3 3c 0c 38 24 3d 56 25 0d 3e
       -0.11900296 0.019897966 0.040092513 0.13783774
0003f0 2c c4 bc 3d e6 1c 35 3d 66 68 28 bc 0c 77 c1 bd
       0.09217104 0.044217013 -0.010278797 -0.094465345

final_dense_1.0.bias f4 [100]
000000 d1 e5 83 bd 8b fa 0b be d8 a7 95 3d 68 c9 c5 3d
       -0.064403184 -0.13669793 0.07307404 0.09657556
000010 aa e4 ba 3d f9 44 2d 3d 36 f0 e9 bd 75 ca b5 3b
       0.091256455 0.042302106 -0.1142277 0.0055478164
000020 7e 70 34 3d 9d b7 88 3d 89 f4 91 3d 6f d2 fe 3d
       0.044052593 0.066756465 0.071267195 0.12442481
000030 78 1f 4b bd c1 1e 74 bd f8 9d 3d 3e fd 59 a0 bd
       -0.049590558 -0.05959964 0.18517292 -0.07829664
000040 4a 7f 23 bd 55 8d a0 3c c0 69 9a 3d 26 df b6 3d
       -0.039916314 0.019598642 0.075397015 0.08929281
000050 a7 6a 0d 3e c0 d7 9a bd 5b f4 15 3e 17 7c c9 3d
       0.13810216 -0.07560682 0.14643995 0.098381214
000060 38 75 4b be 3c c2 87 bc 31 a7 e2 bd e3 18 09 be
       -0.19868934 -0.01657211 -0.110670455 -0.133884
000070 36 ee 29 bb 48 74 3c be d3 3d 5a bd 01 91 8e 3d
       -0.0025929338 -0.18403733 -0.053281616 0.06961251
000080 53 89 90 3d a7 93 e2 3b 08 ce 8d bd 80 0a 9c bd
       0.070574425 0.006914574 -0.06924063 -0.0761919
000090 16 f7 07 bd 5c 28 45 be c5 5b db 3c ef fd 38 3d
       -0.033194624 -0.19253677 0.026777158 0.045164045
0000a0 0a ce 8d 3a 63 3d e1 3e a4 92 c6 bd 23 71 03 bc
       0.0010818851 0.43992147 -0.09695938 -0.008022579
0000b0 24 90 b6 3d 1a cc e9 3d 83 91 08 3f 41 8f 51 3e
       0.089142114 0.114158824 0.53347033 0.20464803
0000c0 d8 67 8c bd 26 a5 69 3d ef 79 e6 3e 67 d8 e8 3c
       -0.06855744 0.057042263 0.45014903 0.028423501
0000d0 e8 47 3f bd 14 69 1a 3e 4b 10 4e 3d 2b 60 b3 bd
       -0.046699435 0.15079147 0.050308507 -0.08758577
0000e0 59 88 c4 3e 83 34 89 bd ed 9c 07 3c 3d ed 02 3c
       0.38385275 -0.06699469 0.00827716 0.007991132
0000f0 5c 6e d0 3d 69 c5 05 3d 58 e5 a4 bd 94 19 9b 3d
       0.101772994 0.032658968 -0.08051556 0.07573238
000100 b8 4e 5e bb 22 6f 4a be 6c fc 74 bc 4a 38 c5 bd
       -0.0033921432 -0.19768956 -0.01495276 -0.09629877
000110 28 81 c4 3d 9d 89 04 3e a5 70 0d be cd 6e bb 3c
       0.09594947 0.1294312 -0.13812502 0.022879982
000120 ea c1 3b be 17 a5 67 bd f3 73 8d bc 7f 4b f9 bc
       -0.18335691 -0.056553926 -0.017267203 -0.030431507
000130 42 23 60 3d c2 a3 3b 3c 40 67 ab 3e 5e f4 bf 3d
       0.054721124 0.011452617 0.3347721 0.09372781
000140 8c 49 db bc 10 dd 9a 3c 6d db 36 bd c9 d8 4b 3d
       -0.026768468 0.018904239 -0.044642854 0.04976729
000150 ec 5d 64 ba 48 dd 46 bd 73 02 ab 3e 2e 30 b1 bd
       -0.0008711505 -0.048550874 0.33400306 -0.08651768
000160 f6 80 8c bd 6f c1 8d bd 1c 5f 02 3e 9e d8 c3 3d
       -0.06860535 -0.0692166 0.12731594 0.09562801
000170 4e be 1a bc 2c 13 a9 3c 4b ce 18 bb 34 ab 94 bd
       -0.009444786 0.020639025 -0.002331632 -0.07259217
000180 81 a3 8a 3e ef f4 a2 bd bd e0 8f 3c 57 39 19 3e
       0.2707787 -0.079568736 0.017563218 0.1496328

batchNorm_3.weight f4 [100]
000000 2f f4 ef 3f fc 3b 09 40 f6 25 01 40 26 03 01 40
       1.8746394 2.1442862 2.017942 2.0158172
000010 d5 c3 e7 3f 70 51 fd 3f 1e 5d f5 3f df 2d f3 3f
       1.8106638 1.9790478 1.9169042 1.8998374
000020 6e 8a 04 40 7f ff 0e 40 07 86 0d 40 59 9f 05 40
       2.070949 2.2343442 2.2113054 2.0878508
000030 e2 ca dc 3f ab f8 f9 3f 4d fd 10 40 ab 29 d7 3f
       1.7249415 1.9529012 2.2654603 1.6809591
000040 d4 df 07 40 a4 2f f3 3f a2 7a ee 3f 78 41 06 40
       2.1230364 1.8998914 1.8631175 2.097746
000050 3b 55 ff 3f 28 de ee 3f 4d a8 f8 3f e8 78 f5 3f
       1.9947885 1.8661547 1.9426361 1.9177523
000060 21 c1 e9 3f a5 c0 e1 3f 88 25 d4 3f 50 0d e8 3f
       1.8262063 1.7636915 1.6573954 1.8129063
000070 64 2a f0 3f 5b 9e d9 3f 41 f7 fd 3f a6 93 fd 3f
       1.8762937 1.7001451 1.9841081 1.9810684
000080 23 ee d3 3f 72 eb e3 3f bf 14 f1 3f 6a 2c e7 3f
       1.6557049 1.7806227 1.8834456 1.8060429
000090 5d c5 e1 3f ba 3d c2 3f cc d6 ee 3f d2 a5 f9 3f
       1.7638355 1.5175087 1.8659301 1.9503729
0000a0 74 3d fc 3f bb c0 e6 3f a7 40 ea 3f 4d f6 e9 3f
       1.9706254 1.8027567 1.830098 1.827829
0000b0 20 0d 06 40 25 b7 01 40 b1 c8 e0 3f 2e 0d fc 3f
       2.094551 2.0268033 1.7561246 1.9691522
0000c0 8f 46 d6 3f c8 69 03 40 42 7e f1 3f 6d c4 06 40
       1.6740283 2.0533314 1.8866656 2.1057389
0000d0 3e 53 ee 3f b4 27 24 40 ef 8e fc 3f 99 fd 05 40
       1.8619153 2.5649233 1.973112 2.0936034
0000e0 3d 7b 03 40 fe fe f6 3f 54 78 ef 3f 2a 1b 04 40
       2.0543969 1.9296567 1.8708596 2.064158
0000f0 ac 7b f9 3f 3c ce e8 3f de 92 d1 3f 2a 1d fb 3f
       1.9490867 1.8187938 1.6372945 1.9618275
000100 c8 37 e9 3f ce 36 ea 3f 22 d3 03 40 1b f2 ef 3f
       1.8220148 1.8297975 2.0597615 1.874576
000110 11 cf e8 3f a3 ac f8 3f d5 32 de 3f 8e 51 00 40
       1.8188192 1.9427685 1.7359263 2.0049777
000120 88 c5 0d 40 e3 0f d8 3f 88 3d ff 3f e6 eb f2 3f
       2.2151814 1.6879848 1.9940653 1.897824
000130 73 c5 04 40 af a3 0f 40 4c b4 01 40 78 0f 21 40
       2.0745513 2.2443655 2.0266294 2.5165691
000140 31 66 d8 3f fe 2a fe 3f 93 ed f4 3f 47 54 ef 3f
       1.6906186 1.985687 1.9135002 1.8697594
000150 cc 1b 00 40 50 bd 0a 40 ce a8 02 40 99 a7 f9 3f
       2.0016966 2.1678047 2.041553 1.9504272
000160 95 78 ef 3f 5d 71 e9 3f a0 2a 0b 40 8c 66 e3 3f
       1.8708674 1.8237721 2.1744766 1.776567
000170 3b 1b fd 3f 68 0f fa 3f ec bf f9 3f 47 18 e6 3f
       1.9773935 1.9535952 1.9511695 1.7976159
000180 79 d1 07 40 65 31 f8 3f d6 09 fb 3f 7f 37 01 40
       2.1221602 1.9390074 1.9612377 2.0190122

batchNorm_3.bias f4 [100]
000000 6d 6c 87 3e 74 2b bf 3e 02 06 ef bc 82 98 80 be
       0.2644991 0.3733784 -0.02917767 -0.25116354
000010 cc d5 d2 3d 23 97 a3 bd a2 02 87 bc 74 9b 6b be
       0.10294685 -0.079878114 -0.016480748 -0.2300852
000020 4b 63 a7 be a8 29 cb bd 53 f7 8c be d0 60 ba bc
       -0.32692942 -0.09920055 -0.27532443 -0.022751242
000030 fe a5 93 be f0 98 8c bd 96 c9 9d 3d 85 a0 c4 bd
       -0.2883758 -0.06865108 0.07704465 -0.09600929
000040 66 0c 2a be c2 a1 1d be cd c1 06 3d e1 6d bc bc
       -0.16606292 -0.15393737 0.032899667 -0.023001613
000050 df bd 0f 3e da 80 8c bc 40 9f de be c7 16 34 be
       0.14037274 -0.017151285 -0.43480873 -0.17586814
000060 0a 80 88 3c b9 f4 85 3e 0c c9 80 be 1e ae df bc
       0.016662616 0.2616327 -0.25153387 -0.027304705
000070 a9 ad 4f 3d 38 73 72 3d e6 1a 2c 3d 62 6a 26 be
       0.050702725 0.059191912 0.04201784 -0.1625152
000080 74 ec 28 be c3 5f 8c bc 7d 35 9a 3e aa d0 a3 be
       -0.1649645 -0.017135506 0.30118933 -0.31995136
000090 4c 83 74 be b3 7f c8 be 20 32 37 3e 14 c3 4e be
       -0.23878211 -0.39159927 0.17890215 -0.20191604
0000a0 ee dc a3 3d 53 45 1f 3e d0 20 ad 3e 8c 14 72 be
       0.08001123 0.15553789 0.33814096 -0.2364065
0000b0 04 0a ec 3e 67 6c 8b be ff 34 6c 3e e3 fa 40 be
       0.4610139 -0.27231142 0.23067091 -0.18845706
0000c0 13 f4 05 bc 9d a9 57 be 2d b8 87 bd 90 70 79 be
       -0.008175868 -0.21060796 -0.066269256 -0.24359345
0000d0 26 ce b0 3d a3 a2 69 3e a7 5b 51 3d 73 e7 8b 3e
       0.0863307 0.22815947 0.051112797 0.2732502
0000e0 33 c6 ce 3d a3 0f c5 bd 83 73 c3 3a c4 d2 dc bc
       0.10096397 -0.09622123 0.0014911745 -0.02695597
0000f0 77 4b 1c be 19 cd 2b bd 98 24 d0 be 7f 5a 9d be
       -0.15263163 -0.041943643 -0.4065292 -0.30733106
000100 01 1a c5 bd 84 db 83 be 13 6f c0 be d1 a7 56 bd
       -0.096241005 -0.25753415 -0.37584743 -0.052406136
000110 ff 38 9d bd c5 9e 2b bd 2e dc 11 be a2 02 13 be
       -0.07676887 -0.04189946 -0.14244148 -0.14356473
000120 74 13 2e 3d aa ca 76 be e1 b0 38 bd c8 4b fb 3b
       0.04249902 -0.24100748 -0.04509056 0.007668946
000130 08 3e 67 be b7 78 29 be ff 4d d8 bb 7f ee e6 bd
       -0.22582257 -0.16549955 -0.0066010947 -0.11275958
000140 88 e6 67 bd df b9 a2 bd fb aa 9c 3e de 47 60 3d
       -0.056616336 -0.07945608 0.30599198 0.054756038
000150 b8 1c 20 be 7a 57 51 3b 96 d1 1b be 41 83 0a be
       -0.15635955 0.003194301 -0.1521667 -0.13526632
000160 ea b5 9e bc 7b f2 b7 3e 7b 50 a6 bc c5 4f 8b 3c
       -0.019373853 0.35927185 -0.020302048 0.01700581
000170 dc 73 dc 3d 22 30 9b be 92 a7 dd bd c3 76 c6 bc
       0.10764286 -0.3031016 -0.10822977 -0.024226552
000180 b9 97 42 bd 71 f7 90 bd cb 61 02 3e ab f4 c1 3d
       -0.047507975 -0.07078446 0.12732618 0.09470495
